Name : bonjour
Type : p

Batch size : 64
Epochs : 10
Validation split : 0.2

Test accuracy : 0.7558560967445374
Test loss : 1.02201509475708

Summary :

Model: "perceptron"
┏━━━━━━━━━━━━━━━━━━━━━━━━━━━━━━━━━┳━━━━━━━━━━━━━━━━━━━━━━━━┳━━━━━━━━━━━━━━━┓
┃ Layer (type)                    ┃ Output Shape           ┃       Param # ┃
┡━━━━━━━━━━━━━━━━━━━━━━━━━━━━━━━━━╇━━━━━━━━━━━━━━━━━━━━━━━━╇━━━━━━━━━━━━━━━┩
│ flatten (Flatten)               │ (None, 784)            │             0 │
├─────────────────────────────────┼────────────────────────┼───────────────┤
│ dense (Dense)                   │ (None, 512)            │       401,920 │
├─────────────────────────────────┼────────────────────────┼───────────────┤
│ dense_1 (Dense)                 │ (None, 256)            │       131,328 │
├─────────────────────────────────┼────────────────────────┼───────────────┤
│ dense_2 (Dense)                 │ (None, 128)            │        32,896 │
├─────────────────────────────────┼────────────────────────┼───────────────┤
│ dense_3 (Dense)                 │ (None, 64)             │         8,256 │
├─────────────────────────────────┼────────────────────────┼───────────────┤
│ dense_4 (Dense)                 │ (None, 26)             │         1,690 │
└─────────────────────────────────┴────────────────────────┴───────────────┘
 Total params: 1,728,272 (6.59 MB)
 Trainable params: 576,090 (2.20 MB)
 Non-trainable params: 0 (0.00 B)
 Optimizer params: 1,152,182 (4.40 MB)

Accuracy : [0.3035876750946045, 0.6349025964736938, 0.7728555798530579, 0.8574485778808594, 0.9116736650466919, 0.9483700394630432, 0.9485521912574768, 0.9632125496864319, 0.9616190195083618, 0.9804224967956543]
…
