Name : lune
Type : c

Batch size : 64
Epochs : 10
Validation split : 0.2

Test accuracy : 0.9502230882644653
Test loss : 0.4106850326061249

Summary :

Model: "convolutional"
_________________________________________________________________
 Layer (type)                Output Shape              Param #   
=================================================================
 conv2d (Conv2D)             (None, 24, 24, 48)        1248      
                                                                 
 max_pooling2d (MaxPooling2D  (None, 12, 12, 48)       0         
 )                                                               
                                                                 
 dropout (Dropout)           (None, 12, 12, 48)        0         
                                                                 
 conv2d_1 (Conv2D)           (None, 10, 10, 72)        31176     
                                                                 
 max_pooling2d_1 (MaxPooling  (None, 5, 5, 72)         0         
 2D)                                                             
                                                                 
 dropout_1 (Dropout)         (None, 5, 5, 72)          0         
                                                                 
 flatten (Flatten)           (None, 1800)              0         
                                                                 
 dense (Dense)               (None, 512)               922112    
                                                                 
 dense_1 (Dense)             (None, 512)               262656    
                                                                 
 dense_2 (Dense)             (None, 256)               131328    
                                                                 
 dense_3 (Dense)             (None, 256)               65792     
                                                                 
 dense_4 (Dense)             (None, 128)               32896     
                                                                 
 dropout_2 (Dropout)         (None, 128)               0         
                                                                 
 dense_5 (Dense)             (None, 26)                3354      
                                                                 
=================================================================
Total params: 1,450,562
Trainable params: 1,450,562
Non-trainable params: 0
_________________________________________________________________

Accuracy : [0.11482425779104233, 0.4845656454563141, 0.7703970074653625, 0.8735658526420593, 0.9170005321502686, 0.9429065585136414, 0.9616190195083618, 0.969541072845459, 0.9775086641311646, 0.9794208407402039]
…
