Name : millefeuille
Type : p

Batch size : 64
Epochs : 10
Validation split : 0.2

Test accuracy : 0.7778862118721008
Test loss : 1.2636862993240356

Summary :

Model: "perceptron"
_________________________________________________________________
 Layer (type)                Output Shape              Param #   
=================================================================
 flatten (Flatten)           (None, 784)               0         
                                                                 
 dense (Dense)               (None, 512)               401920    
                                                                 
 dense_1 (Dense)             (None, 256)               131328    
                                                                 
 dense_2 (Dense)             (None, 128)               32896     
                                                                 
 dense_3 (Dense)             (None, 64)                8256      
                                                                 
 dense_4 (Dense)             (None, 26)                1690      
                                                                 
=================================================================
Total params: 576,090
Trainable params: 576,090
Non-trainable params: 0
_________________________________________________________________

Accuracy : [0.2884265184402466, 0.5904662013053894, 0.7427608966827393, 0.8485248684883118, 0.8916863799095154, 0.9395374059677124, 0.9555636644363403, 0.960890531539917, 0.9733200073242188, 0.9806956648826599]
…
